.dart_tool/chrome-device/Default/optimization_guide_prediction_model_downloads/05bb6c81-de42-4b5a-9cc7-d263b95f1a90/model.tflite (tflite, 410364 bytes, 166 tensors)

context_transformer_0/bottleneck_input/norm/add f4 [32]
00000000: de37 1fbe c812 5dbd ab97 8b3d 3df5 e73d
00000010: e748 7b3d 49ab 37bd b94a 8fbd ba63 263d
00000020: c2af 193d a484 993d 7e83 a83d 9628 b0bd
00000030: 88c8 1c3e 7197 d6bc 4879 f6bd 4779 e3bd
00000040: e7f9 d53d 267e bc3c 1844 babd f041 5cbe
00000050: 026e 87bd bdba 67bd d25b d9bd e838 f5bc
00000060: 0017 5abd a294 743c b0ba d1bc 8719 f4bd
00000070: 78b9 90bd 3ae6 06bd 5821 30be 3988 34bc
-0.15548655 -0.05397299 0.06816038 0.11326072 0.061348822 -0.044841085 -0.06996674 0.04062245
0.03752113 0.07496002 0.08228205 -0.08601491 0.15310872 -0.02619526 -0.12034851 -0.11107116
0.10448056 0.023009371 -0.09095019 -0.21509528 -0.06612779 -0.056574572 -0.106132165 -0.029934362
-0.05324459 0.014928015 -0.025601715 -0.119189315 -0.07066625 -0.032934405 -0.1720022 -0.011018806

context_transformer_1/bottleneck_input/norm/add f4 [32]
00000000: 9078 1b3d acb6 c1bc fcb5 003d 363e e33c
00000010: d0bb 74bd 5ccd 013e 2a67 acbd 54a8 ec3c
00000020: 2259 b53d aaf8 1e3d 18e3 94bc de42 283e
00000030: 3148 e3bc b2f0 ac3c 4dbe 9ebd a4a8 0cbe
00000040: 6742 90bd 2e72 4abd 02fe 993c ca6f 68bd
00000050: 7407 e8bd 529c 073e ac32 d9bd 2641 8ebe
00000060: 7b58 9a3d 1e41 583e 39a6 053e c8a3 92bc
00000070: da46 a9bd e5f9 2dbd b885 373e 9d81 893d
0.037956774 -0.023646675 0.031423554 0.027739625 -0.059749424 0.12675995 -0.084181145 0.028888859
0.08854891 0.038811363 -0.018174693 0.16431758 -0.027744384 0.021110866 -0.07751141 -0.13736206
-0.07043915 -0.049425296 0.018797878 -0.056747235 -0.113295466 0.13243225 -0.10605368 -0.2778408
0.075364076 0.2111859 0.1305169 -0.017900363 -0.08265467 -0.042474646 0.17922103 0.06714175

mention_transformer_0/bottleneck_input/norm/add f4 [32]
00000000: cd94 dcbd 9211 003d 2249 b83d 828d bebd
00000010: 8714 2abd ce29 e8bd 96c8 11be 6afa b53d
00000020: 8717 c43d 8aaa 373d 702b a3bd 3d06 bf3e
00000030: d2f1 8b3c 9edd 343e dac1 fc3c 60b2 d2bc
00000040: ecbd 103d f159 113e 0283 253d f02d 3b3c
00000050: aee9 8a3d 8a06 babd cd56 273e a7d7 e1bc
00000060: f60f 723e 542b 19be 0fb9 51bd 73a0 35bd
00000070: 844e f23d baab 36be cf20 723c 90fb abbd
-0.10770569 0.031266756 0.08998324 -0.09304334 -0.041523483 -0.113360986 -0.14236674 0.08885653
0.095748 0.044840373 -0.079672694 0.37309447 0.017083082 0.17662665 0.030854154 -0.025719821
0.035337374 0.14194466 0.040408142 0.011424527 0.06782852 -0.090832785 0.16341706 -0.027568651
0.23638901 -0.14957935 -0.051201876 -0.04434247 0.11831382 -0.17838946 0.01477833 -0.08397591

mention_transformer_1/bottleneck_input/norm/add f4 [32]
00000000: 7c6f 113c 91b2 01be 4280 77bd 760b 4fbe
00000010: cef6 d83d 0c48 643e 1e41 bbbd c601 f1bd
00000020: 543c 293e 0098 ccbd 0092 133d 82e9 d33d
00000030: 9f86 103e f47a 0b3d 5b95 e43c 4cc4 6c3e
00000040: 8dbe 163d a8da d13d edc7 8f3d 0bc3 06be
00000050: b2cc fb3d 1047 30be c0f5 433e 68de fabd
00000060: c048 403a e87e 13be 7869 4d3d 3ab0 5bbd
00000070: dccd aebc 28cf 393c cdc1 433d ae6c 433e
0.008876678 -0.12665774 -0.06042505 -0.20219216 0.10593949 0.22293109 -0.091432795 -0.117679164
0.1652692 -0.09989929 0.03602791 0.103472725 0.14113854 0.034052804 0.02790325 0.23121756
0.036802817 0.102467835 0.07020555 -0.1316034 0.12294902 -0.17214608 0.19136715 -0.12249452
0.00073350593 -0.1440388 0.05014941 -0.05363486 -0.021338396 0.011340894 0.047792245 0.19084427

context_transformer_0/attention/value/add;context_transformer_0/attention/value/einsum/Einsum;context_transformer_0/attention/value/add/ReadVariableOp/resource f4 [32]
00000000: cbb7 e53c 4ce0 863d ce8d 57bd 5032 6bbd
00000010: d1cf 49bd 7360 c23c 2ce6 6cbd d5fb ee3c
00000020: 09f5 02bd e32e 293d de11 803d efa7 ce3c
00000030: a1bf 3c3d 1caa 513d e62a 3f3d 6d32 1a3b
00000040: 66fb da3d a813 b8bd a7a5 a5bd 9e69 8dbd
00000050: 46c5 41bc d955 1b3d 4b71 57bd f70e d23c
00000060: 8a27 7f3d 7a23 a8bd 166b caba 38a7 a43d
00000070: 5296 713d aea4 76bd 1963 673d e543 a13d
0.02804174 0.0658575 -0.05262547 -0.05742103 -0.049270455 0.023727631 -0.057836697 0.029172817
-0.031971965 0.04130448 0.06253408 0.025226561 0.04608119 0.05118762 0.04667177 0.0023528591
0.10692482 -0.08988124 -0.08088236 -0.069049105 -0.011826819 0.037923668 -0.05259828 0.025641901
0.062293567 -0.082098916 -0.0015443291 0.08039707 0.058981247 -0.060215645 0.05649099 0.07874278

context_transformer_0/bottleneck_input/norm/mul f4 [32, 32]
00000000: 742a b53d c990 69bd ff90 413e b563 4ebe
00000010: d053 8dbe dec3 8abe 2329 58bd 23e6 ec3d
00000020: 1254 7e3e bad5 b03e d72a cc3d d17a d2bd
00000030: 244e c83d 8b0b ba3e 427d ee3c 93da d03d
00000040: 1355 dbbc e25b ae3d c888 f4bc 3e24 0fbc
00000050: 204b 403d 7e6b 7e3e c402 9f3e 4152 d6bd
00000060: 030d af3d 76d5 59bd 5642 033e 16b0 7e3e
00000070: aff4 f73c a666 b0bc 1a52 913c 738c edbe
00000080: 94a4 bfbe 89cf 2b3e 05cf 30be 8943 4bbd
00000090: 9fee 34bf ba19 4c3e 3470 333e b3d5 963e
000000a0: 434c 883e c2ec 86bd fa97 7abe a8a7 693d
000000b0: 135c bc3c 572d 713e 90d9 043e 192d 8eba
000000c0: 30b0 fb3d b6cf 7d3e 11c4 a63e 01c6 073e
000000d0: 6bdb 81be b5b1 c53d 94b7 8c3d fdde a83d
000000e0: 3c5a e0be e437 52be 7c44 413e fb66 073d
000000f0: cf0b 183f 67ba 9dbe 1a53 0a3d c2c3 c43d
00000100: 69c9 9a3c b646 6cbe f502 d1bd 907a 443d
00000110: 9d1e b23e 8873 893e 5412 073d 5e31 123e
00000120: f242 5abe d8ec 0fbd 670d 0fbe c944 f73e
00000130: 96c8 7c3e 841d 8e3e e270 69be f27b 72be
00000140: e668 9cbe 01ea 1ebd 16d2 073d fa1f 69be
00000150: 2461 953e d7b8 f1be b0e0 2dbe b813 553e
00000160: b9d0 dc3c bd03 123e 62d8 413e b5d8 8bbe
00000170: f28e c23e cacd a3be da7a ad3d f6f3 0fbe
00000180: 277b b83e 7b66 163d 8a16 40be f7fd 3b3e
00000190: af79 283f e465 c8be b464 763e f054 95bd
000001a0: af67 853d d098 33be 039b 113e ef6c 6dbe
000001b0: 0e98 06be da44 eabe 9625 9abe 4d9e 9ebd
000001c0: 03f9 e43e fef4 31be a029 9e3e eb2c babd
000001d0: ab3f d43d cfe0 c33d 43d4 343e 87e6 99be
000001e0: a1c3 8a3e 59d4 243e 65ce b7be 74e3 303e
000001f0: e08e 1bbf 3769 d4bd f32c 103e 0980 f43e
00000200: fb23 cc3e 68b9 fa3e c56a 1cbf 6b59 75bc
00000210: 24c7 683f e5c5 e8be 5015 dd3c 9e4b d3bc
00000220: 8f48 69be 0784 69be fda4 f9bb 4102 e6be
00000230: d5b2 1ebf 84b3 36be df9d 74bd eea7 79be
00000240: 6119 a03e 82d4 033e bb53 0dbd c359 c93e
00000250: be58 46be f36c 91be 1eaa 87be 4bf4 65bd
00000260: 4ac4 493e 8cae c83e 8028 11bf 478b 9a3b
00000270: 20b8 45bf 74cd 483e 1c6f 4e3d 0846 7a3d
00000280: 51e7 4e3e a9b7 e43d b81a 723e fe96 a93d
00000290: 481a 18bd 6105 1bbe f245 d3be e083 8dbe
000002a0: 3332 1fbe cd6e 63bd 07db 543d e257 b23d
000002b0: 9afd e33d 0b3b 753d 341d 9abe 54a7 a33e
000002c0: 0699 2a3e 774e 8ebd 0e57 22bf 7fab 803d
000002d0: b2a9 1cbd 21b2 9ebe fa16 19bd 6768 1e3e
000002e0: 30f8 423e 369e 98bd be7c a93e 1f8c 81be
000002f0: 451a 1a3e 30f3 c5bb 8e6b f9bd 72f0 e4bd
00000300: d511 133c d88e 70bd 571a 05be 778c 33be
00000310: 2539 393d aa5a 723e f9f8 5f3d 3c9b a43d
00000320: b878 07bc 5e00 753e f229 a9bc 42da 353e
00000330: e3bc 123e 67ab 06be 1c66 963e e075 03bf
00000340: c414 f93a 240f 803d 8db8 12be 6de2 5ebe
00000350: 7342 d73d 013e 31bb a76e 103d 98c5 98bd
00000360: ef75 433e 098c d7bb 56af 8a3e a6ec a5be
00000370: b9ff 603e 485e c53d 0879 273d 35eb 24be
00000380: c190 b23d a214 0a3e 9435 6b3d fd20 ac3c
00000390: 7117 19bd b6d2 b7be fe94 80bd 7cf0 89be
000003a0: 371c 2fbf 857a a2bd 2ac2 f23d bac5 03bf
000003b0: 6bd0 7a3e 634f f5be a043 71be 8611 1abd
000003c0: 4b1d 15be e2c7 cdbe ac2d 853d ffa3 8b3d
000003d0: 059c 8fbe d3af c7be fcaf cfbd 9b7b 143e
000003e0: bcd3 aabd 6930 2bbe 0fbf dbbe ecb8 d1be
000003f0: 367e 61be 759a 02be b0c3 5abe 056b 683e
0.08845988 -0.057022844 0.18902968 -0.20155223 -0.27603006 -0.2710256 -0.052773606 0.115673326
0.24836758 0.3453806 0.099691086 -0.102773316 0.09780529 0.36336932 0.029112462 0.1019794
-0.026773965 0.08513619 -0.029850379 -0.008736668 0.046946645 0.24845693 0.31056798 -0.104649074
0.08547404 -0.053182088 0.12818274 0.24871859 0.030268041 -0.021533322 0.017739344 -0.46396217
-0.3743025 0.16778387 -0.17266472 -0.049624953 -0.70676607 0.19931689 0.17523271 0.29459915
0.26620683 -0.06588127 -0.24472037 0.057044655 0.022993123 0.23552452 0.12973619 -0.001084718
0.122894645 0.24786267 0.32571462 0.13259126 -0.25362715 0.096530356 0.06870952 0.08245657
-0.43818843 -0.20529133 0.18873781 0.033057194 0.5939302 -0.30806276 0.033770658 0.0960765
0.018894868 -0.23073849 -0.10205642 0.047968447 0.3478898 0.26845956 0.032976463 0.14276645
-0.213146 -0.03513798 -0.13969956 0.48294666 0.24685892 0.27756894 -0.22796968 -0.23680094
-0.3054878 -0.038797382 0.033159338 -0.22766104 0.29175675 -0.47211334 -0.16980243 0.20808303
0.026954995 0.14259239 0.189302 -0.27313772 0.37999684 -0.31992942 0.08470698 -0.14057907
0.36031458 0.036718827 -0.18758598 0.18358599 0.65810674 -0.39140236 0.24061853 -0.07291591
0.06513917 -0.17538762 0.14219289 -0.23186086 -0.13143942 -0.45755655 -0.301068 -0.07745037
0.4472123 -0.17378613 0.30891132 -0.09090599 0.10363706 0.09564363 0.17659096 -0.3005869
0.27102378 0.16096629 -0.35899654 0.17274266 -0.60764885 -0.10371631 0.14079647 0.47753933
0.398712 0.4896958 -0.6110042 -0.014974932 0.90928864 -0.45463482 0.026987702 -0.025792893
-0.22781585 -0.2280427 -0.007618545 -0.44923595 -0.61991626 -0.17841917 -0.05972087 -0.24380466
0.31269363 0.12874034 -0.03450368 0.39326295 -0.1936979 -0.28403434 -0.26496977 -0.05614118
0.19703785 0.3919567 -0.56702423 0.00471631 -0.7723408 0.19609624 0.05039893 0.061101943
0.20205428 0.11167843 0.23643005 0.082807526 -0.03713444 -0.1513877 -0.41264302 -0.27639675
-0.15546493 -0.05552559 0.051966693 0.087081686 0.11132355 0.05987076 -0.30100405 0.319636
0.16659936 -0.0694856 -0.63414085 0.0628271 -0.03824777 -0.30995277 -0.037375428 0.15469514
0.19039989 -0.07452051 0.33102983 -0.25302216 0.15049084 -0.006040953 -0.121787176 -0.11178674
0.008976419 -0.058729976 -0.12998329 -0.17534052 0.045220513 0.23667398 0.0546808 0.08037421
-0.008268528 0.23925921 -0.020649884 0.1775904 0.14329867 -0.13151322 0.29374778 -0.5135174
0.0019003381 0.06252888 -0.14328213 -0.21766062 0.10510721 -0.0027045014 0.035261776 -0.07459563
0.19087957 -0.006577973 0.27086896 -0.3240711 0.2197255 0.09637123 0.04088691 -0.1610535
0.08719016 0.13484433 0.057424143 0.021011824 -0.03737587 -0.35902947 -0.06278418 -0.26941288
-0.6840243 -0.07933525 0.1185344 -0.5147358 0.24493568 -0.4791213 -0.23560953 -0.037614368
-0.14561956 -0.4019156 0.06502852 0.06818389 -0.2804872 -0.3900133 -0.10140988 0.14500277
-0.083411664 -0.16717686 -0.42919204 -0.40961397 -0.22020802 -0.12754233 -0.21363711 0.22697075

context_transformer_0/kq_shared_bottleneck/norm/mul;context_transformer_0/kq_shared_bottleneck/norm/add;context_transformer_0/attention/key/einsum/Einsum;context_transformer_0/attention/key/add;context_transformer_0/attention/value/einsum/Einsum;context_transformer_0/attention/key/add/ReadVariableOp/resource f4 [32]
00000000: 1e14 74be 67c2 7a3e 7231 4bbe 46a7 b0bd
00000010: 35a6 003d 6fd4 ffbd 20ec eb3d 3c68 b43d
00000020: 58d3 833e 0406 613e 969d 69be 8c96 6b3e
00000030: 8791 65be 8d4d 80be 50bd 04be bb5b 503e
00000040: e79f 4e3e db95 c53d 92cd 3d3e a2e5 533e
00000050: 6776 5a3e 749c 493e a982 a3bd 22a6 7abb
00000060: dcd6 59be 7478 e03c 7e81 d3bd 5d1c febc
00000070: 62e5 41bd c655 f8bd 5199 d5bd c5b5 cabd
-0.23835799 0.24488221 -0.1984308 -0.08625655 0.031408507 -0.1249169 0.11519647 0.08808944
0.2574718 0.21974951 -0.2281402 0.23006648 -0.22418796 -0.25059167 -0.12962842 0.20347492
0.20178185 0.09647723 0.1853545 0.20693067 0.2133423 0.19688588 -0.07983906 -0.0038245996
-0.21273369 0.027401187 -0.10327433 -0.031019384 -0.047337897 -0.12125735 -0.104296334 -0.09897951

context_transformer_0/kq_shared_bottleneck/norm/mul;context_transformer_0/kq_shared_bottleneck/norm/add;context_transformer_0/attention/key/einsum/Einsum;context_transformer_0/attention/key/add;context_transformer_0/attention/value/einsum/Einsum;context_transformer_0/attention/key/add/ReadVariableOp/resource1 f4 [32, 32]
00000000: 4ece 813e d369 87be 2a6e e83c 6028 fabd
00000010: 11e0 063d b5d8 db3c 45ba 043e 16e0 783e
00000020: 562c 0a3d 4844 893d 74b4 06bd 04ad 323d
00000030: f94f 9a3c 5299 023e 82f1 2c3e 3828 2abd
00000040: 6d46 fa3d ebd3 72bd 6531 0ebd 7ce0 423d
00000050: 9fb5 26bc 644e 03be d999 4bbe 450a 0d3c
00000060: d69b 88bd f3c9 5d3d 6368 87be 97d1 8f3d
00000070: ead4 15be 8289 73bd b4f2 54bc 7632 01bd
00000080: f7fa 6bbe e266 7a3e bcca 30bd 592d ed3d
00000090: 9ba2 e4bc fe9f 07bc c3e3 c2bd bf92 bebe
000000a0: ab08 8dbc 5cfb 0bbd e381 0c3c af63 efbc
000000b0: 92c2 583a c0cb 11be 5c0e 28be 0cc8 16bb
000000c0: 8273 7ebd 9bc7 813d 913e ce3d a13e 72bd
000000d0: 6194 613b 7aa9 463d d172 293e b7d1 64bc
000000e0: 105a 853c e97b dbbd f629 5b3e 3cc8 f8bc
000000f0: def9 413e d4ae 313d 913f 013d b7c3 c03c
00000100: e7d7 4c3e 3eb3 1abe 1478 8f3c 6c56 dabd
00000110: 2207 993d 8038 913d 12a2 b43c 7fc7 d53e
00000120: 1152 12ba 1dbd 763c b77f f1bb ba48 db3c
00000130: d1a4 13bc ed5b 463e c3e8 f03d f8e8 e9bb
00000140: 3e16 883d 60f8 5bbd 4197 62bc 5381 b53c
00000150: 8952 0a3d d4ac 20bd 64b3 18be 5e9a 8e3d
00000160: b325 fcb9 b369 083e c02b 71be dffb 2e3d
00000170: 6926 34be 3b9c 93bc 48bf f7bc 7b26 3abd
00000180: a6f6 5c3e f2a5 64be 0e98 9bbc d534 b13c
00000190: 1949 453d 0855 803c 117e a33d 2589 97be
000001a0: 6560 5bbc 696e 163b 0364 83bc e853 09be
000001b0: e94b 433d 8ab1 29be c807 143e fa3f e83c
000001c0: 5b3f 883b 02ed 493d 4824 8abd 43db c7bd
000001d0: 343e 953d 0e33 a3be 6a24 2eb9 8cf6 f73b
000001e0: 6210 6cbd 6d76 12be a884 37be 87f1 7f3d
000001f0: 35d6 013e 82ae babb 2280 c63c cc5d adbb
00000200: b378 1d3e e345 10be d22e c8bd bd31 843d
00000210: 28fd 073c 381d 263e 0b13 843e 4861 86be
00000220: 0800 61bd fb1f 50bd d66f f73c 8ea2 34be
00000230: 9fda 903d d828 0fbe 35a4 103e 85e9 0b3a
00000240: 6a52 dd3d ffea 9e3d 6ee5 18bd 350a f5bd
00000250: 9abe 603e 3a39 8dbe 872c 463d 18d8 433e
00000260: 0afe 48be 3ecb 23be a11a 1bbe 895b 803e
00000270: 5c45 2b3e cfab 983d e38d 253e 352c c1bd
00000280: cc9f be3d b940 c9bd 5cb1 b83c 856e b6bd
00000290: a5a2 5e3d a2f8 7c3d e665 a23d c04e af3e
000002a0: 5771 c43a 4698 9cbb e535 4f3c bd8d 9c3c
000002b0: d284 5abc d87f 0b3e 7a73 073c db91 5cbd
000002c0: aa12 f73d 7c15 48bd 4555 e43c 58fe 023d
000002d0: 25ae 243d 4900 e83b c5b3 cfbd c7bc ce3d
000002e0: ffa6 dfbc e012 cd3d 3b70 21be 3eee a93d
000002f0: 78bf 1bbe 35c0 653c a127 ebbb d8ed 62bd
00000300: 8b35 7abe 5b54 4b3e d0c2 953c 318a ecbb
00000310: e864 10bd 6685 48bb 2b9b 7bbd fda2 673e
00000320: 1d91 a43b 4c84 32bc abd4 c23c 1eca 123e
00000330: ac56 5abd fbc9 cf3d a73e 32be d852 6cbd
00000340: b523 89bb f8d4 b9bc 7e01 a03d e5a5 943d
00000350: 7dba 96bc 7b0a 993e 3673 353d 46d1 ecba
00000360: 3d15 6f3d 4710 f43d 9081 463e dc16 d1bd
00000370: 38ba 93bd 507e a93c 73fc 5bbc 7073 943b
00000380: d7a3 62bd acd6 14bc 4e57 8b3b 7f34 d63b
00000390: 0c61 0ebd ce03 28bd 3cc0 80b9 b918 a7be
000003a0: 303a e73a 246f 2f3d aa34 2cbd 757d cbbc
000003b0: e407 7e3c a135 16be 0ad6 d7bc 126f cc3d
000003c0: 0ced bdbd 2080 b93c febb 4abb 23c9 42bd
000003d0: d0a1 b3bc 6273 bcbd 64c3 1b3d 9979 85bd
000003e0: bf35 91bc c500 7dbd 6bb1 b43d 9929 573c
000003f0: ce3d 153e 6593 12bd 734c c5b9 e28d 8b3d
0.2535271 -0.26447925 0.028372843 -0.12214732 0.03292853 0.026836732 0.12961681 0.24304232
0.03373369 0.06702477 -0.032886937 0.04362203 0.018836962 0.127538 0.16889003 -0.04154226
0.12220464 -0.059284132 -0.034715075 0.047577366 -0.010175138 -0.12822872 -0.19882907 0.0086084055
-0.06670348 0.054147672 -0.26446828 0.07022398 -0.14632002 -0.05945731 -0.012997318 -0.031542264
-0.23044954 0.24453309 -0.043162093 0.11580915 -0.027909568 -0.008277891 -0.09516098 -0.37221333
-0.017216047 -0.03417526 0.008575889 -0.029222338 0.00082687393 -0.1423788 -0.16411728 -0.002300742
-0.062121876 0.063369 0.10070527 -0.05914176 0.0034420716 0.04850147 0.16547705 -0.013966016
0.016278297 -0.10716993 0.21402726 -0.030368917 0.18942973 0.04337962 0.031554762 0.023530824
0.20004235 -0.15107438 0.017513312 -0.10661015 0.074720636 0.07090855 0.022049937 0.41753766
-0.0005581687 0.015059737 -0.007369961 0.026768077 -0.009011463 0.19371004 0.11763146 -0.0071383677
0.06644867 -0.053703666 -0.013830007 0.022156393 0.033770118 -0.03922732 -0.14912182 0.06963037
-0.00048093274 0.13321571 -0.23551846 0.04272067 -0.17592777 -0.018018832 -0.030242577 -0.045446854
0.21578464 -0.22328928 -0.018993404 0.021631638 0.048165414 0.015665546 0.0798303 -0.2959682
-0.0133896815 0.0022953993 -0.0160389 -0.13410914 0.047679815 -0.16571632 0.14456093 0.028350819
0.004157943 0.049298294 -0.06745201 -0.09758618 0.07287255 -0.3187489 -0.00016607498 0.0075672325
-0.05763281 -0.14302988 -0.17921698 0.062486198 0.1267937 -0.0056970725 0.02423102 -0.0052907225
0.15378074 -0.1408916 -0.09774555 0.06454799 0.008300103 0.16222084 0.2579578 -0.26246095
-0.05493167 -0.05081175 0.030204695 -0.17640135 0.07072949 -0.13980424 0.1412514 0.00053372263
0.10806735 0.07759666 -0.037328176 -0.119648375 0.21947709 -0.27582723 0.04838231 0.19125402
-0.19628158 -0.159955 -0.15146877 0.25069836 0.16725677 0.07454645 0.16167407 -0.0943226
0.093078226 -0.09826798 0.022545509 -0.08907799 0.05435433 0.061760552 0.07929592 0.3423977
0.0014987391 -0.0047788946 0.012647127 0.019110555 -0.013337331 0.13622987 0.008267278 -0.053850036
0.12064107 -0.048848614 0.02787269 0.031980842 0.04020514 0.007080112 -0.1014171 0.100946
-0.02730131 0.10013366 -0.15765469 0.08297394 -0.15209758 0.0140228765 -0.007176355 -0.055402607
-0.24434488 0.19856398 0.01828137 -0.007218622 -0.03525248 -0.003059709 -0.061427277 0.22620769
0.0050221817 -0.0108958 0.023783049 0.14334914 -0.053305313 0.101459466 -0.17406712 -0.057696193
-0.004185165 -0.02268456 0.078127846 0.07258204 -0.018399471 0.29890808 0.044299327 -0.001806774
0.058369864 0.11917167 0.19385362 -0.10209438 -0.07213253 0.020690113 -0.013426888 0.004530363
-0.05533203 -0.009084385 0.004252351 0.0065370197 -0.03476052 -0.041019253 -0.00024557288 -0.3263605
0.0017641243 0.0428306 -0.042042412 -0.024840096 0.015504811 -0.14668895 -0.026347179 0.099821225
-0.09273729 0.022644103 -0.0030934806 -0.0475551 -0.021927744 -0.09201695 0.038028136 -0.065173335
-0.017725823 -0.061768312 0.08822902 0.013132476 0.14574358 -0.035785098 -0.00037631727 0.068141714

context_transformer_0/kq_shared_bottleneck/norm/mul;context_transformer_0/kq_shared_bottleneck/norm/add;context_transformer_0/attention/query/einsum/Einsum;context_transformer_0/attention/query/add;context_transformer_0/attention/value/einsum/Einsum;context_transformer_0/attention/query/add/ReadVariableOp/resource;context_transformer_0/attention/Mul;context_transformer_0/attention/Mul/y f4 [32]
00000000: 0f59 9b3d d48b 57bd 9dff 2c3d 2dc3 103e
00000010: 0a68 303e 128e 8a3c 8252 0fbe 174b 6f3c
00000020: 0176 553e 596f 573e c691 e0bd 8134 5b3e
00000030: 7fe1 e7bd 5c4f 6ebe 44b6 4a3d 0353 9bbd
00000040: a55e 63be dab9 3fbc 4a4d 20be 457d 69be
00000050: c4f7 22bd 289d 85be 0092 b83c 0620 d13b
00000060: bfec e9bc 82e6 783c 12a3 bbbc eae5 053c
00000070: 5779 193d 38bc 15ba bb87 243d 44e8 e53c
0.07585346 -0.052623585 0.04223596 0.14136954 0.17227188 0.016913448 -0.13996318 0.014605305
0.20845796 0.2103857 -0.10965304 0.21406747 -0.11322307 -0.2327246 0.04949023 -0.075841926
-0.22204073 -0.011702025 -0.15654483 -0.22801693 -0.03978707 -0.26096463 0.022530556 0.0063819913
-0.028555272 0.015191676 -0.022904906 0.008172492 0.037469234 -0.00057119457 0.040168505 0.028064854

context_transformer_0/kq_shared_bottleneck/norm/mul;context_transformer_0/kq_shared_bottleneck/norm/add;context_transformer_0/attention/query/einsum/Einsum;context_transformer_0/attention/query/add;context_transformer_0/attention/value/einsum/Einsum;context_transformer_0/attention/query/add/ReadVariableOp/resource;context_transformer_0/attention/Mul;context_transformer_0/attention/Mul/y1 f4 [32, 32]
00000000: f966 3b3c 7c7a 30bc b8f3 d33b cd4f 84bd
00000010: d0ac a63c 03fb 833c e347 be3b acea 2f3c
00000020: 56eb 733c cece 0d3c b94f 37bb 4996 af3c
00000030: c0d7 7bbd 325a e03d 4bf0 d63c f779 463c
00000040: 1a8f 32bc 86b4 b0bd 4712 8e3d baaa f43c
00000050: 8247 d23c a2c9 8cbc f86c 04be 8073 363c
00000060: 597a 27bc 1e89 113b bf99 cd3a 664f f3bb
00000070: 831c 12bd 312b 3fbc 2a23 14bd b884 07bc
00000080: 3b4f 0cbc b660 2b3b 0e24 41bc e0fd e63d
00000090: efec 8bb8 42b7 b33a 67d1 9a3c 4c6f afbc
000000a0: 209e 4fbc f67b bebc b88c 3b3c 301a 33bd
000000b0: 8dd3 503d 536f f2bd b983 8ebc 60ea adbc
000000c0: 757a 9d3c fd79 9c3d 844a 4dbd 781a fabc
000000d0: fb7e febb d99b 113b 1dcf e53d 3b51 733b
000000e0: d043 183c 9da4 b3bb 712d bc3b 4b99 883c
000000f0: 0c96 173d 190c 333c 3a03 023d 6306 1dbd
00000100: b0de e33c b441 0cbd 2e5d 003b e096 03be
00000110: 6920 103c 912e 2f3a 36be fbbb 18a0 653c
00000120: d903 f93b db2a d93c 4447 4ebb 6eb8 7b3d
00000130: a489 06bd cd68 e03d fda7 fd3c 59a8 243d
00000140: 5367 38bc 3e68 91bd 7407 4c3d a2c4 e63c
00000150: 1251 b13c cf91 aebc b77a d9bd 45c4 033c
00000160: 6443 a1bc 7e57 21bb cbda acbb 8eb6 f2bb
00000170: a92d 05bd 98f3 bebc 55df 2dbd b8bb 123d
00000180: a107 a9bd bb33 9e3d f1fc bcbc b9f6 903d
00000190: a76e b2bb 84b1 2a3d 1961 67bc 17d6 e7bc
000001a0: d9da cabc 4039 c6bc 16b1 d038 9465 e6bc
000001b0: 509e 9abb b467 0fbd 1074 74bd d8f9 563c
000001c0: 0d40 09bd 35a5 dd3c 96f1 14bc 8448 9fbc
000001d0: 3323 113d 538a 753d be5c 0e3d 0ff2 813c
000001e0: 5886 9ebc 4292 dfbc 6e1f 6c3d b1a9 22bc
000001f0: 94b0 253d 601b b53c 0559 ee3c 747a 1abc
00000200: 8228 9fbd e6d3 b33d f753 f0bc 54be 623d
00000210: e269 163c 2619 2c3d 88cb 3dbb 43ac 5abd
00000220: 44ff 63bd 15a3 1abd 6e7f 1d3c b4c5 f639
00000230: 91a7 013d 7396 80bd 3b18 7bbd 3b84 153d
00000240: 0c1d 4abd 5421 073d 61ae b2bb ae57 36bd
00000250: 8a99 103d 0508 813d b1de 763d 6f7f db3c
00000260: 8cdf fcbc 0eb4 59bd 5178 5a3d 1e43 c6bc
00000270: c7c6 863d eb4d b93c 2334 a43c 70d9 1c3c
00000280: dbf4 253d 235a 4dbd 4c3b 28bc ae4e b5bd
00000290: e615 be3c 6459 443c d2c6 483c 0119 ea3b
000002a0: 4d66 14bc e559 183c c255 ca3b 2bf9 193d
000002b0: fea1 48bc a09e 833d ce61 5c3d 4067 a13c
000002c0: 0797 803c 9720 37bd 57ae ed3c 9390 c23a
000002d0: f590 b23c 96f1 21bd 4a7a b4bd 7749 803c
000002e0: 4281 b5bc 781b 1cbc 7c95 50bc 9fca 603c
000002f0: 23dd 90bc d028 60bb 2e08 c3bc bfb9 923c
00000300: d881 9d3d 5006 9dbd 1dd5 9c3c ec0e 55bd
00000310: 7717 eb3b b326 ffbc 93bd 3b3c 3ba6 963c
00000320: f484 9d3c df16 d33c 6929 f9ba be31 423c
00000330: 9e6b 263c 96a6 433c b2ef 813d 38ad cfbc
00000340: 8157 373d 3cab 18bb be4c 63bc 87f2 a53c
00000350: 81c5 57bc a911 7ebd 5914 98bc d7ce 86bc
00000360: 01fe 493c 4c28 ab3c 2830 72bd 7d7d a03c
00000370: 2a54 b6bc ce27 63bc 0715 74bc b702 3d3c
00000380: c5ae 28bd 9d0a 2f3d 5a83 b5ba 52c6 923d
00000390: 3c74 4cbc ff8b f5bb 21fe 08bd 482e 7fba
000003a0: a405 613c 10f0 9ebb fe37 e0bb 16e0 31bd
000003b0: 5c8a 3dbc 18ef 25bd 0b59 2fbd df98 f1bb
000003c0: 251f 36bc f968 893c 5362 36bc 3e31 cbbb
000003d0: 0765 36bc d2de 093d f1b7 403d 09c8 c6bc
000003e0: 4d7f 0f3d 894b 14bb 77ab 083d dfd4 bfbc
000003f0: bf65 5c3c 133f 413b 9655 923c e5c0 e1bc
0.011438125 -0.01077139 0.0064682625 -0.06460533 0.020346075 0.016110903 0.0058069094 0.0107371025
0.014887651 0.008655263 -0.0027971102 0.021433966 -0.061485052 0.109547034 0.026237627 0.01211404
-0.010898376 -0.08628182 0.0693708 0.029866565 0.025668863 -0.01718599 -0.12932193 0.011135936
-0.010222041 0.0022206972 0.0015686079 -0.0074252365 -0.035671722 -0.0116680125 -0.036166348 -0.008271389
-0.008563812 0.0026150174 -0.011788381 0.112788916 -6.672169e-05 0.0013711231 0.018898679 -0.021415375
-0.012671977 -0.023252469 0.011447124 -0.043726146 0.050983 -0.1183764 -0.017396795 -0.021229923
0.019223431 0.07640455 -0.05011989 -0.0305302 -0.007766602 0.0022218137 0.11221144 0.0037127275
0.0092935115 -0.00548227 0.0057427217 0.016674658 0.03700833 0.010928177 0.03174136 -0.03833617
0.027816147 -0.034242347 0.001958679 -0.12850523 0.00879679 0.0006682659 -0.007682587 0.01401522
0.0075993356 0.026509693 -0.0031475583 0.061455183 -0.032846108 0.10957489 0.030963892 0.04019961
-0.011255103 -0.07099961 0.049811795 0.028169934 0.021645103 -0.021309761 -0.10619109 0.0080424
-0.019685455 -0.00246188 -0.0052751056 -0.007407016 -0.032514248 -0.023309514 -0.042449314 0.035823554
-0.08253408 0.077247106 -0.02306983 0.070783086 -0.0054453197 0.0416732 -0.014122271 -0.028300328
-0.024762558 -0.02419722 9.951198e-05 -0.028124608 -0.0047185794 -0.03501101 -0.059681 0.013121091
-0.03350835 0.027056316 -0.009090802 -0.019443758 0.03543396 0.05994637 0.034756415 0.015862493
-0.01935117 -0.02729142 0.05764716 -0.009928153 0.0404516 0.02210778 0.029095182 -0.009428609
-0.07771398 0.08780651 -0.029336913 0.055357292 0.009180518 0.04201617 -0.0028960425 -0.053386938
-0.055663362 -0.037753183 0.009612901 0.00047068077 0.031653944 -0.06278696 -0.061302405 0.036503058
-0.049344108 0.03299077 -0.0054529165 -0.04451721 0.035302676 0.06300358 0.06027097 0.026794164
-0.030868314 -0.05315023 0.0533374 -0.024201926 0.065808825 0.022620162 0.020044392 0.0095733255
0.040516715 -0.05013479 -0.010268044 -0.088528976 0.023203801 0.011984203 0.012254434 0.007144094
-0.0090575935 0.009298776 0.006174774 0.03759114 -0.012245653 0.0642674 0.05380421 0.019702554
0.015697015 -0.044708814 0.029013796 0.0014844112 0.021797637 -0.039537035 -0.08812387 0.01566003
-0.022156361 -0.009528033 -0.012730952 0.013720184 -0.017683571 -0.0034204014 -0.023807611 0.017910836
0.07690781 -0.0766722 0.01914459 -0.052016184 0.007174428 -0.031146383 0.011458772 0.018389812
0.019228436 0.025767742 -0.0019009534 0.01185268 0.010157494 0.011941573 0.063445464 -0.025351152
0.044761185 -0.0023295423 -0.013873277 0.020257248 -0.013169647 -0.06202856 -0.01856439 -0.01645605
0.012328626 0.020893238 -0.059127957 0.019591087 -0.02225693 -0.013864471 -0.014897591 0.011536292
-0.0411823 0.04273473 -0.001384835 0.07166733 -0.012478884 -0.0074934955 -0.03344548 -0.00097343745
0.013734255 -0.004850395 -0.0068426123 -0.043426596 -0.011568632 -0.04051122 -0.042809527 -0.00737296
-0.011115824 0.016773688 -0.011131841 -0.0062009385 -0.011132485 0.033659764 0.04705042 -0.024265306
0.035033513 -0.002262803 0.033366647 -0.023416935 0.0134519925 0.0029487058 0.017863076 -0.0275578

context_transformer_0/ffn_layer_0/intermediate_dense/einsum/Einsum;context_transformer_0/ffn_layer_0/intermediate_dense/Relu;context_transformer_0/ffn_layer_0/intermediate_dense/add f4 [32]
00000000: b918 b7be f377 afbe cf80 b73c e56a a8be
00000010: 21ae e5bd ac03 93be 015e e8be bc46 d3be
00000020: 179f 8ebe 4f2a e8be 1e81 0fbe 41f8 79be
00000030: 8799 f4be 230a 35be 4166 f63b fd82 c7be
00000040: 4602 66be 8a7a 70bd cc20 88be e410 c7be
00000050: 6a96 b3be f98a 42be 84f7 76be 754a c1be
00000060: 9397 01be 269e 94be 23b6 9ebe aac7 cbbd
00000070: af52 bfbe 7121 e5bd 5538 44be 085e bcbe
-0.3576105 -0.34271201 0.022400288 -0.32894054 -0.11214853 -0.2871374 -0.4538422 -0.41264904
-0.2785575 -0.4534478 -0.14014098 -0.24411108 -0.47773382 -0.17679648 0.007519514 -0.38967124
-0.22461805 -0.058710612 -0.26587522 -0.38880074 -0.35075694 -0.18998326 -0.24117857 -0.3775212
-0.12655477 -0.29026908 -0.30998334 -0.09950192 -0.3736777 -0.11188019 -0.19162114 -0.3679049

context_transformer_0/attention/norm/mul;context_transformer_0/attention/norm/add;context_transformer_0/ffn_layer_0/intermediate_dense/einsum/Einsum;context_transformer_0/ffn_layer_0/intermediate_dense/Relu;context_transformer_0/ffn_layer_0/intermediate_dense/add f4 [32, 32]
00000000: 6b30 103e a45b a83c 1bb9 a0bd 1eb8 35be
00000010: 3d7e 35bd 746b dabd 710e e03e 092f 65be
00000020: dedd 58be 73ab 4bbd 2adf 383d 813d 4c3d
00000030: 903d 32be d034 193e ec1b 3a3e d428 293e
00000040: 13a6 50be 194c d9bc c0fc 5dbe 7fca 01bd
00000050: f37e 083e 327a ba3e 35f0 913d c5c0 143d
00000060: 815b 2bbd 564e bd3b 28f8 eabb 7af5 29be
00000070: 769b 6e3e 901f 003e e3b0 1c3e 5d0a a7be
00000080: 399f 0a3e 41c5 373e d9f3 30be 0a0c a63e
00000090: aced 593d 2537 d23d d84e 47be a9fc 97bc
000000a0: fe30 a2be da0a 603e f4eb 85be 6e5a 113e
000000b0: 1d54 7fbd b7b4 c6bd 9e2f 0d3e 25ca 4bbd
000000c0: fa87 87bd 7d0e a5be 76f9 6b3d 36ad 5c3e
000000d0: ce20 093f f8ab b63d 41ac 303e a248 2ebe
000000e0: 3996 82be 24ec 2bbe f25f 843e b189 323e
000000f0: ac53 42be 2322 9d3d 35d3 853e ebec d9bd
00000100: aae4 053e a61f c8bd 157f d33d fc9f b63e
00000110: 8cb5 b43e c5a6 5a3e 32c7 2cbe 6201 163e
00000120: df32 3abe 6a78 ddbc 8753 f13d 6404 9abd
00000130: d4a3 df3d 2499 0b3e 4d12 25be 4917 6ebe
00000140: ee40 603e d7b5 fabd b73b a73e c658 083e
00000150: 1e6d 5f3d 166a 0cbe 16d0 c93d e492 8d3e
00000160: fb72 f8bd 8165 d6bd 93c8 933c 406e ac3e
00000170: fe19 0ebe b621 34bd 2ad6 e93d 0511 ce3e
00000180: a873 cbbb d0d4 3bbe e08a c13d d7ac 2bbd
00000190: 5c83 0ebe f23b 733d 9485 293e 7e3e 58bd
000001a0: 123d 183e ba25 86be 9c13 793d 587a 7e3d
000001b0: ff7c 663c 7f8b 2bbe f517 123e 6050 863d
000001c0: c64c 343e bb7c 013e b738 4f3e 7b08 b93e
000001d0: 478e 9f3d 62c4 983d 2546 5c3e 8576 ad3d
000001e0: 43c7 0e3d 9993 d93d dc2c 70bd 6a8b 843e
000001f0: 799d f6bc e3a1 28be ac5f 2b3e 565a 573e
00000200: 2a2a a93e 9e91 f23d 1052 b5be acce 1f3e
00000210: e1c3 633d 0396 fd3c 0e60 31be 2be2 adbd
00000220: 114d 883e 22db bf3e e210 e43d f949 403d
00000230: a69f 06bd 03d0 00be 2cf7 a0bd 0ca7 233e
00000240: 28e3 18bf 6dc9 a43d 9962 023e b245 823e
00000250: 92c4 cbbd 0732 443d e8cc 83be d20b 9dbd
00000260: 9f59 bf3d db4b 11be ad37 8abc 0042 7a3e
00000270: 055b af3d 1581 743e 233e bd3d 6f3e 783c
00000280: 043a 2c3e 0cbd a6bd d06a 00be fb86 2fbd
00000290: 38e6 843e 6110 1dbe 478e 05be 7a81 b93d
000002a0: 4272 443e f29d 94be b514 8e3b 73f2 8c3c
000002b0: 76c9 64be b6b0 533d 9580 42bc f785 a2bc
000002c0: 0f68 c8bc 7bd0 433e 39ac 5f3e 262d dc3e
000002d0: d1b9 423e deb6 773d 8831 ee3d 93fa 92bd
000002e0: 5d3c 0b3d 6321 3a3e 208d db3d 6778 443e
000002f0: 0640 8cbd a5a7 d23b 541f 0e3d a1fb 22be
00000300: de4f 9c3d 7b10 ae3d 41e2 ebbd 173f 5dbd
00000310: 330d f9bd 61bc 433d 1bad 03bd ef4c f13c
00000320: 22b5 923d 0a43 2abe a7a6 98bd f257 26be
00000330: 5d8b b7bc 91fb 143e e638 943e 63a8 49bd
00000340: d3fc 14be 0efe 96bd 9c76 af3d 8578 da3e
00000350: 9526 253e c2cc 98bd e777 97be c696 b2bc
00000360: edcf 75be 595d 533e 6439 d43d 74bd 653e
00000370: ecf0 7abd 3de1 5f3e f8db 163e 3158 9d3d
00000380: 078d bb3d bded e83d ad92 13be b143 a03d
00000390: 05d6 093e 4c84 9fbd 9cdf b43e cff2 38be
000003a0: 6d1b 07bd b1c6 a4be 3dcd 993d 4fcb 803e
000003b0: 207d 02be bbde b8bc 3cbf e6bd 4a2e a43e
000003c0: e8cb f7bd 9e5f 2d3d 567c 0cbe 374f 903c
000003d0: 3383 8abd 4521 7bbb 3c6b a43e 293c 3e3e
000003e0: b78f ec3d 36f4 153e 3720 babd c4bc f0bc
000003f0: 8e4f c03e 77b6 66bd fa2a 553e 5644 14bc
0.1408097 0.02055151 -0.07847806 -0.17746016 -0.044309843 -0.10665026 0.43761018 -0.22381224
-0.21178386 -0.049724054 0.0451347 0.049863342 -0.17406297 0.14961553 0.18174714 0.16519481
-0.20375852 -0.026525544 -0.21678448 -0.031687256 0.13329677 0.36421353 0.07125894 0.03631665
-0.04183531 0.0057771606 -0.007170696 -0.16597548 0.23301491 0.1251204 0.15301852 -0.32625094
0.13537301 0.1794634 -0.1728052 0.3243106 0.053205177 0.10264424 -0.1946367 -0.018553095
-0.31678003 0.2187914 -0.2615658 0.14194652 -0.062336076 -0.09702437 0.13787696 -0.049753327
-0.06617732 -0.32237616 0.05761095 0.2155045 0.5356568 0.08919519 0.1725321 -0.17019895
-0.25505236 -0.16789299 0.2585445 0.17435338 -0.18977231 0.07672527 0.261377 -0.10640892
0.1307551 -0.097716615 0.10326973 0.35668933 0.3529476 0.2135268 -0.16872862 0.14648965
-0.18183468 -0.027034957 0.1178351 -0.07520369 0.109199196 0.13632637 -0.16120262 -0.2325107
0.21899769 -0.122417144 0.32662746 0.13315114 0.05454742 -0.13712344 0.09854142 0.2765113
-0.12131306 -0.10468579 0.018039977 0.33677864 -0.13877103 -0.04397746 0.11417802 0.4024736
-0.0062088557 -0.183429 0.094503164 -0.04191288 -0.13917297 0.05938334 0.16554862 -0.052793972
0.14867046 -0.26200658 0.060809717 0.062128395 0.014067887 -0.16752432 0.14266951 0.06558299
0.17607412 0.12645237 0.20236479 0.36139283 0.07790809 0.07459332 0.21511133 0.084698714
0.034858 0.10623855 -0.05863653 0.25887614 -0.030104386 -0.16468005 0.16735715 0.21030554
0.3303998 0.118441805 -0.3541417 0.15606183 0.055606727 0.03095532 -0.17321798 -0.08490404
0.26621297 0.37471873 0.11136033 0.046945546 -0.032867096 -0.1257935 -0.07859644 0.15981692
-0.5972161 0.080462314 0.12732925 0.25443798 -0.09949602 0.047899272 -0.2574227 -0.0766827
0.09343266 -0.14189093 -0.016872251 0.2443924 0.085622825 0.23877366 0.09240367 0.015151604
0.16819006 -0.081415266 -0.12540746 -0.042853337 0.25956893 -0.1533828 -0.13042556 0.09057899
0.19184211 -0.29026753 0.0043359646 0.017205453 -0.22342476 0.051682197 -0.011871477 -0.01983927
-0.024463682 0.19122498 0.21843041 0.43003196 0.19016196 0.06047713 0.11630541 -0.071766995
0.033993114 0.18176799 0.10720277 0.19186555 -0.06848149 0.006428676 0.034697846 -0.15916301
0.07632421 0.08499237 -0.11517764 -0.054015245 -0.12160721 0.047787074 -0.032147508 0.02945563
0.071634546 -0.16627136 -0.074536614 -0.16244486 -0.02240532 0.1454909 0.2894966 -0.04923285
-0.1454957 -0.07372676 0.08567545 0.42670074 0.16127999 -0.074609295 -0.29583666 -0.02180041
-0.24005099 0.20641078 0.10362509 0.22435552 -0.061264917 0.21863265 0.14732349 0.07682837
0.09157758 0.1137347 -0.14411421 0.07825411 0.13460548 -0.077889055 0.3532685 -0.18061374
-0.03298514 -0.3218284 0.07509849 0.25155112 -0.12743044 -0.022567144 -0.11266944 0.32066566
-0.12099439 0.042327516 -0.13719305 0.017615898 -0.067633055 -0.003831939 0.32113063 0.18577637
0.11550849 0.1464394 -0.09088176 -0.029386885 0.37560695 -0.056326356 0.20817176 -0.009049496

context_transformer_0/ffn_layer_1/intermediate_dense/einsum/Einsum;context_transformer_0/ffn_layer_1/intermediate_dense/Relu;context_transformer_0/ffn_layer_1/intermediate_dense/add f4 [32]
00000000: 114e b23d bbfb b7bd 6a44 1ebe f48a 843e
00000010: b7d5 82be 5d27 f03c 1f2e 1dbe 264d 33be
00000020: 2901 6cbc d3e6 a7bd 25a1 763d ac23 2d3e
00000030: bfe2 cdbd b96d 87bd 38b7 9b3d d2bc 55be
00000040: a6ed 2dbe 5600 94bd b803 5ebd 4c65 42bd
00000050: 7c22 e8bd 752d 64be e92c 24be c510 7fbe
00000060: 1f69 aebd 4d72 73bd 8316 c83c 69b1 b7bd
00000070: de15 83be 5a05 92bd 3437 98bc 606c e8bd
0.08706296 -0.08983561 -0.15455785 0.25887263 -0.25553676 0.029315645 -0.15349625 -0.17509899
-0.0144045735 -0.08198323 0.060212273 0.16908139 -0.10053014 -0.06612725 0.076033056 -0.2087281
-0.16985187 -0.072266266 -0.054202765 -0.047459885 -0.113347024 -0.22282965 -0.16032757 -0.24908741
-0.08516144 -0.059435178 0.024424797 -0.08969385 -0.2560262 -0.07129927 -0.01858101 -0.11348796

context_transformer_0/ffn_layer_0/norm/mul;context_transformer_0/ffn_layer_0/norm/add;context_transformer_0/ffn_layer_1/intermediate_dense/einsum/Einsum;context_transformer_0/ffn_layer_1/intermediate_dense/Relu;context_transformer_0/ffn_layer_1/intermediate_dense/add f4 [32, 32]
00000000: 185b 703c b1aa 02be 1e91 a33e fb2a 233e
00000010: 868b 083d 3351 db3d a745 a53e d256 1b3e
00000020: a111 c63d dce0 78be 594e e73d 2a00 273d
00000030: 6db4 ff3c 3557 b5bd 55f9 123e b8a3 97bc
00000040: 1b5a 533e 954e d3bd 8d82 6b3e a8d1 353e
00000050: 8f87 1b3e 0a19 283e fcf1 4e3e eb9f 0cbd
00000060: e46c 933d e0cf 7dbe 0d73 85bd d5ec 863e
00000070: e6bf 0fbe 4d1a 49be d5cf d13e 08ba af3e
00000080: cf43 0bbc b5de 46bc 1d75 0fbb 95f5 9fbc
00000090: ba8d 913c 6fab 243c bc07 3a3c e317 75bc
000000a0: aeae 8abc fd1d 653c 5b29 9b3a 2d22 1b3d
000000b0: 9c53 69bc db88 2fbb 7b7e 85bc 9395 f93c
000000c0: 31c2 71bb 1e16 8fbc 32bb ad3c 5925 813d
000000d0: b435 53bc a8d8 a4bb 4435 643c 626e c63c
000000e0: 20d4 773c 0f87 73bb bc28 ae3c 972a 8a3c
000000f0: ad9a 393d 2e50 053d 8648 0e3d f3d6 1bbd
00000100: 8e79 a93d b47c c43d a1dc 6dbd 1933 4cbe
00000110: e1f2 10bd c624 19be d8c3 87bb e3b1 ccbc
00000120: 2330 453e e9b2 92be 5c66 47be 2f51 513d
00000130: b43c b8bd 141c 57bd 50bd cc3b 07c6 8d3e
00000140: 24c0 0e3e b542 2ebd a20b 623d c0a8 6d3e
00000150: 9f0b 9d3e d27d 433e 9d2d c93e 1091 633e
00000160: f6d0 a23c 7dd0 eb3b 9081 863e b356 3e3d
00000170: 5794 b6bd 0bef 103e eb39 4b3e 081d 023d
00000180: 62a7 b83e 74a4 9d3d 41ec da3c 37a4 20bd
00000190: bd25 3ebe 3008 b9bd 4e1e a23d 8436 23be
000001a0: 116d 243e 0236 bf3d c20b 7cbd 5095 99bd
000001b0: 966f 5ebe 5321 0cbe 0035 a33d 50b8 013e
000001c0: 4f2d cdbe 8e2c a7be 1d3c 883e 26ff bd3d
000001d0: c100 223d 7b56 d8bd f5e3 51be a56d 273d
000001e0: b881 9c3c 1fec 63be dc56 d23d 093d 913e
000001f0: 5671 5e3d ba75 f03d 82f4 433d 5718 e53d
00000200: 7505 043e e4d2 bdbd 7dc9 84bd 5e1e b3bd
00000210: 2da3 6cbd 3c5c 9c3e e90b 0b3d a91e 8d3d
00000220: 8b37 0a3e 4bfa 00be 1118 8cbc b00e dabd
00000230: fc6b 6abb ea01 9f3d ee90 dd3d 20e5 2a3d
00000240: 08f5 c6bd 2387 2ebd 1cf6 803e 24a4 c63e
00000250: 2969 493e d5b0 0d3e 1f54 42be 354d 7abd
00000260: 700f 7dbd e53c 49bd bccf 2bbe c640 c33e
00000270: b6fa b3bd ff75 e33c 543f 153e 046c b6bd
00000280: 49d3 1b3d 1877 fa3d 64d9 aabd dd15 aabe
00000290: 2db3 4cbe 0db2 94bb 13c6 2a3e 0f51 c63d
000002a0: 279c 923d 9ddb d7be 5664 2dbe 31ad 123e
000002b0: abc0 55bb c290 c13d 5718 aa3e b052 513c
000002c0: 87ac 83be 25e7 613d 7870 e3bd 27fd 57bd
000002d0: 602e d33c 5134 bb3e 238c 873e c273 c8bd
000002e0: eea5 6e3e 5675 52be a123 60bd abd8 a9bd
000002f0: b67a 393e 8042 70bc 3f21 cf3d ad94 80be
00000300: 7eb1 043e 122c 813d d7e6 febd 33e7 b13d
00000310: 0ce3 1a3d df10 9bbc 32b9 d73d 6f01 21bd
00000320: 1b07 b33d e00a 58bd 4c96 fabc 6871 563d
00000330: 2506 4ebe 0aa9 0fbd f195 ad3b 76e0 c0bc
00000340: db5b ffbc 811b ac3c 3886 6abc 78ed 4f3d
00000350: 6159 81bc 9e90 8fbd b2e7 fd3c 7a0d 51bd
00000360: a717 11be 3e65 a93d bf2d 393d bc1d a63c
00000370: 149a e93c 9742 253c 5d80 c33d e8b7 adbd
00000380: 7a7a 233e 0e20 00be 607a acbd 6e36 83bc
00000390: f4b6 3d3d b77c f8bd 9c35 013c 0c63 803d
000003a0: f14f 6d3e 8629 adbe 8c85 88bd 4962 493d
000003b0: fd8f 94be c730 d0bc 410d 803d 88c2 9dbd
000003c0: 23eb a0bd 4d93 93be abb7 563e bc2c 3e3e
000003d0: 4184 743e 5706 1ebe 9139 8fbd 3cbe d1bd
000003e0: 121f 27bd 80fc 44bc 94ea aa3d 323b 6a3e
000003f0: 2968 05be 43f9 91bd 5e87 823d 7085 10be
0.014670156 -0.12760426 0.31946653 0.15934364 0.033336185 0.10708847 0.32279703 0.15169838
0.09671331 -0.24304527 0.112942405 0.04077164 0.031213963 -0.08854524 0.14352925 -0.018510684
0.20639841 -0.10317723 0.2299902 0.17755759 0.1518843 0.16415802 0.20209497 -0.034332197
0.071985036 -0.2478633 -0.06516085 0.26352564 -0.14038047 -0.19638939 0.40978876 0.34321618
-0.008500054 -0.012138058 -0.0021889873 -0.019526282 0.017767776 0.010050639 0.011354383 -0.014959308
-0.016928997 0.013984201 0.0011837886 0.03787439 -0.014241125 -0.0026784453 -0.016295662 0.03046683
-0.0036889429 -0.017466601 0.021207426 0.063059516 -0.012891222 -0.0050307103 0.013928715 0.024222557
0.015126258 -0.0037159359 0.021259658 0.016866012 0.045313526 0.03254717 0.034737132 -0.03804679
0.08275138 0.09594098 -0.058071736 -0.19941367 -0.035387877 -0.14955434 -0.0041432194 -0.024987167
0.19256644 -0.28652123 -0.19472641 0.051102813 -0.08995953 -0.05251701 0.0062481537 0.27690145
0.13940483 -0.042544086 0.055186875 0.23208904 0.3067293 0.19090965 0.39292613 0.22223306
0.019875031 0.0071964846 0.26270723 0.0464694 -0.08915012 0.14153688 0.19846313 0.031765968
0.36065203 0.076973826 0.026723983 -0.039219107 -0.18569084 -0.09034765 0.079159364 -0.15938765
0.1605723 0.09336473 -0.06153465 -0.07499182 -0.21722254 -0.13684587 0.07969093 0.12667966
-0.4007363 -0.3265118 0.26608363 0.09277181 0.0395515 -0.1056337 -0.20497115 0.04087605
0.019104823 -0.22258042 0.10270473 0.2836688 0.054307304 0.117412046 0.047840603 0.11186283
0.12892707 -0.0926874 -0.06483743 -0.087460265 -0.057772804 0.3053912 0.033946905 0.068906136
0.1349775 -0.12595479 -0.01710132 -0.10647333 -0.003576993 0.07764037 0.10818659 0.041722417
-0.09714705 -0.042609345 0.25187767 0.38797104 0.19669022 0.13836987 -0.18977402 -0.061108787
-0.0617823 -0.04913034 -0.16778463 0.38135356 -0.08788054 0.027766226 0.14574939 -0.08907321
0.038043294 0.122297466 -0.08342245 -0.33219805 -0.19990225 -0.004537827 0.16677122 0.096834294
0.0715869 -0.4215974 -0.16932806 0.1432388 -0.003261606 0.094514385 0.33221695 0.012776062
-0.25717565 0.055152077 -0.11105436 -0.05273166 0.02577895 0.36563352 0.26474103 -0.09787704
0.23305485 -0.20552573 -0.05472148 -0.08293279 0.18113217 -0.014664292 0.10113763 -0.2511343
0.12958333 0.06307234 -0.12446373 0.08686676 0.037814185 -0.018928943 0.1053337 -0.039308008
0.0874159 -0.052744746 -0.030589245 0.052354246 -0.20119531 -0.035073318 0.0052974154 -0.023544531
-0.03117173 0.021009209 -0.014314227 0.050763577 -0.01578969 -0.070100054 0.03099427 -0.051038243
-0.14169179 0.082712635 0.045209642 0.02027785 0.028515853 0.010086677 0.09545968 -0.08482343
0.1596469 -0.12512228 -0.08421779 -0.016017165 0.046317056 -0.121331625 0.007886317 0.06268892
0.23175026 -0.33820742 -0.06666097 0.049165998 -0.29016104 -0.025413884 0.06252528 -0.077031195
-0.07857349 -0.2882332 0.20968501 0.18571752 0.23878576 -0.15432106 -0.06993402 -0.102413625
-0.040801115 -0.012023091 0.083455235 0.22874144 -0.13028015 -0.07127621 0.063734755 -0.14113402

context_transformer_0/ffn_layer_2/intermediate_dense/einsum/Einsum;context_transformer_0/ffn_layer_2/intermediate_dense/Relu;context_transformer_0/ffn_layer_2/intermediate_dense/add f4 [32]
00000000: 2f25 fbbd 6145 663e 829d 05be 8f97 a33d
00000010: dd98 2abd eed5 22bf fd62 09bd 477e 5bbd
00000020: cfd9 06be bb8f 18bd 581a 8d3e e6e4 673e
00000030: 68d3 bbbc 17ed 3ebd 227e cc3d 1aeb 303e
00000040: 926e 023d 6d64 50bd aea5 223d 0a74 48be
00000050: f76c 19bd 6c25 7cbd 1c4c e5bd 4fff 1b3c
00000060: bd92 b03c a260 6abd 839c bbbd 5773 213e
00000070: 9334 44be e386 4e3e 7c08 793c 5fc3 91be
-0.122629516 0.22487403 -0.13048366 0.07987892 -0.041649688 -0.6360768 -0.03354167 -0.053587224
-0.13169025 -0.037246447 0.2755916 0.22645912 -0.022927955 -0.046612825 0.099849954 0.17277184
0.03184373 -0.050877023 0.039708786 -0.19575515 -0.037457433 -0.061559126 -0.11196157 0.0095213195
0.021554345 -0.057221062 -0.091607116 0.15766655 -0.1916068 0.20168643 0.015199777 -0.2846937

context_transformer_0/ffn_layer_1/norm/mul;context_transformer_0/ffn_layer_1/norm/add;context_transformer_0/ffn_layer_2/intermediate_dense/einsum/Einsum;context_transformer_0/ffn_layer_2/intermediate_dense/Relu;context_transformer_0/ffn_layer_2/intermediate_dense/add f4 [32, 32]
00000000: 1827 193d 5331 55bc f963 1cbe 3b4a d93d
00000010: 5184 a4be 9419 a33d 79b6 ba3c f9d1 fa3b
00000020: 9e71 c43d 87f4 3b3e 500f ec3b df13 f13c
00000030: 324b eebe ad25 093e 9417 9bbb ed46 c83d
00000040: 9571 cb3d f305 92be 5a16 e63d 483c 85bd
00000050: cf16 98bd ece9 89be 1c5b e83d 5135 e0bd
00000060: eb45 babe 70d8 353e fb59 09bd b966 a8bc
00000070: 62ff d03c cb8b ad3d a11a e93d 25ec 2ebe
00000080: 2ac2 6b3e 24f5 2c3e c16b 2c3d 73a6 653d
00000090: a537 69be f041 023e d279 febb 0bc8 97bd
000000a0: cfc0 03bd 8e62 cd3a 10b0 ca3c 5992 c7bd
000000b0: fc76 59be 500b 863c da6b 883d db75 61bd
000000c0: ceee e2bc 68f6 bf3d c142 823e 339a 423d
000000d0: bc16 55bd 28ca 98be 8646 3f3c aae8 0c3e
000000e0: 0290 283e 4f6b 5abc 961e 7f3e 2672 503e
000000f0: 671f f23d 1b29 553d af7e 1b3e 207e a43d
00000100: ae4b d0bd f826 823e 3d80 393e a861 c03d
00000110: 0751 7bbd c25a fa39 1fb2 9d3c 3abf 38be
00000120: a000 4bbc 7338 313e c5c0 4b3d 21cb 96be
00000130: 09dd 4ebe 4236 a93c fa0a 26be cecf 353e
00000140: 93b4 583e 62ff debe ef49 883d 1bd2 b0bc
00000150: 3745 573d fc6a a2be 62ab c4bc 988e 303e
00000160: 6f89 6dbe a5c1 0d3e d44f 303e a825 6ebd
00000170: eba6 753d 3b97 153d 4501 963d 6dc2 ad3d
00000180: b399 32bb 3a65 a5bd 00fe 243e 32ae aebe
00000190: e295 30be 41d2 153e dea4 7f3d ff59 b2bd
000001a0: 2f96 a13e 543c 8cbe f637 48be 6eda 233e
000001b0: 4a88 4fbe 41cc 4bbd ab34 c53d 5b95 09be
000001c0: c69b 9dbe ce29 c3be 8944 b2bd b372 8ebd
000001d0: ce20 2a3e 6ad0 38be 65ef a9bd 33be e2bd
000001e0: 3ac5 543e 4db3 a13c 6314 293e 81af 213c
000001f0: 48cf 5f3d 2f12 babc 435b 2b3e d99e c0bd
00000200: e0eb 2b3c c975 1139 73c4 bf3b 820c 1f3b
00000210: 018f f7bb 29d6 c0b9 5fbe f73a 5a14 46bb
00000220: 6fbc aebb 419c 43ba c204 2abc 1d08 13ba
00000230: eb89 3dbb bd94 d73c d427 39bc effd 183c
00000240: 8352 1a3c b460 8abc f444 98ba e162 d63c
00000250: fec6 37bc a9a5 97bb 97ee 193c da4e 5fbc
00000260: 8b46 34bc 3594 203c 74fa 363c c4e0 e13c
00000270: b64d 4d3c 4543 1dbc 2801 b23c 4599 61bc
00000280: 00b0 ffbb 2555 59be 6c7c 903d 7d06 3ebc
00000290: 52be e1bd b9d6 4ebd 56af 083e 8ad2 dbbd
000002a0: 0ac6 75bd b5f2 25be abcf be3d df8b 55bc
000002b0: 7391 003e 71f1 f53d e14d 56bc 4b27 90be
000002c0: a1ce d3bc 42cd 6f3d dbda 653c 4a72 e53c
000002d0: b740 0fbd 0920 933e 6b7f c53d ac2b f8bd
000002e0: 8532 c93e 8c07 6ebc f55d e5bd 6c8a 2ebd
000002f0: 6549 49be 5cde 193d bc51 113c b2f3 3cbe
00000300: 48af e6bc c4bf 803e d81b 9dbd 3b2a febd
00000310: 6c61 16be 7de4 543e a5c2 18be 99a6 2e3e
00000320: 6e08 e0bd b2e7 6bbe 1034 c2be ceb5 6fbd
00000330: 9da7 57be 709c 9f3e e084 043e 1fd0 713c
00000340: e4ca a5bc 527e 81bc fc26 b73c 6d94 46bc
00000350: 6ff8 b33d 1b4a 81be d17a 8c3e f4ca 403e
00000360: b969 34be bd8b 883e 3deb 103e 91e7 0d3d
00000370: 873a 323e f3e3 bb3d 86cb a23d 5783 483e
00000380: dce6 883c f02d 163e 0ca5 95bd ef63 8dbd
00000390: 4b4c 80bd fa01 953e 3f1f 343c 5bdb 6b3d
000003a0: 90be a5be d0c2 cfbc 7334 07be 7005 973d
000003b0: 1f64 24bd 0e06 cd3d ebe6 113e b7a7 f1bd
000003c0: a0fa b83e c6a6 7d3e 0fde 9d3d 89b0 f43d
000003d0: 6aed 97bd 9c29 39be d0fe a93e 5b45 6d3e
000003e0: 774b 203e 23ec fcbc d5a6 c5bd de8c 9f3d
000003f0: eaf4 123d 2e44 6cbe 5eca 423e ef09 bb3d
0.0373908 -0.013012248 -0.15272512 0.106098615 -0.321322 0.07963863 0.022792088 0.007654425
0.09591983 0.18354999 0.007203974 0.02942842 -0.46541744 0.13393278 -0.0047330353 0.09779153
0.099337734 -0.28520164 0.11234732 -0.06505638 -0.074262254 -0.2693628 0.11345503 -0.10947669
-0.36381468 0.17758346 -0.033533078 -0.020556794 0.025512401 0.08473929 0.11382032 -0.1708227
0.23023286 0.16890389 0.04209495 0.05606694 -0.22775133 0.12720466 -0.007765987 -0.07411202
-0.0321663 0.001566963 0.024742156 -0.097447105 -0.21236795 0.016362816 0.06661196 -0.055044036
-0.027701762 0.0937317 0.25441554 0.047510337 -0.052023634 -0.29841733 0.011674529 0.1376063
0.16461185 -0.013331248 0.24914011 0.20356044 0.11822396 0.052041154 0.15185045 0.08031869
-0.10170685 0.25420356 0.18115325 0.093936265 -0.06135657 0.00047751336 0.019249974 -0.18041697
-0.012390286 0.1730669 0.049744386 -0.2945185 -0.20201506 0.020655755 -0.16215125 0.17755052
0.21162634 -0.43554217 0.06654727 -0.021584561 0.052556243 -0.31722248 -0.024007503 0.17241895
-0.23196958 0.13843401 0.17217952 -0.05814138 0.05997364 0.036521178 0.07324461 0.084843494
-0.0027252256 -0.08075948 0.16112518 -0.34117275 -0.17244676 0.14630987 0.06241309 -0.08708572
0.31559893 -0.27389777 -0.19552597 0.16001293 -0.20266834 -0.04975534 0.09629186 -0.13435881
-0.30782908 -0.38117832 -0.08704478 -0.06955471 0.16614076 -0.18048254 -0.08297614 -0.11071434
0.20778361 0.019738818 0.16511683 0.009868504 0.05464104 -0.022713749 0.16734032 -0.09405298
0.010493249 0.00013872156 0.005852276 0.002426893 -0.007554889 -0.00036780656 0.001890134 -0.0030224533
-0.0053325216 -0.00074619433 -0.010377111 -0.0005608814 -0.0028921317 0.026316041 -0.011301 0.009337886
0.009419086 -0.016891815 -0.0011617229 0.026170196 -0.011216877 -0.0046279025 0.009395263 -0.0136296395
-0.011003147 0.00980096 0.011168111 0.027572997 0.012530735 -0.009598558 0.021729067 -0.013769452
-0.0078029633 -0.21223886 0.070549816 -0.011598227 -0.11022629 -0.050497744 0.13348135 -0.107335165
-0.060003318 -0.16205867 0.09316953 -0.013033836 0.12555484 0.12008942 -0.013080091 -0.28154978
-0.025855364 0.05854536 0.01402923 0.028008599 -0.034973826 0.28735378 0.09643444 -0.12117705
0.39296356 -0.0145281665 -0.111995615 -0.042612478 -0.19656904 0.037565574 0.008869585 -0.18452337
-0.028159752 0.25146306 -0.076713264 -0.124103986 -0.14685601 0.20790286 -0.14918001 0.1705574
-0.10939108 -0.23037603 -0.37930346 -0.05852299 -0.21060033 0.3117404 0.12941313 0.014759093
-0.020238347 -0.015807305 0.022357456 -0.012120348 0.08787619 -0.2525185 0.2743745 0.1882742
-0.17618455 0.26669112 0.14152236 0.034644667 0.17405139 0.09174337 0.07948975 0.19581352
0.016711645 0.14665961 -0.07306871 -0.069038264 -0.06264552 0.2910307 0.010993778 0.05758224
-0.3237195 -0.025361449 -0.13203602 0.07374084 -0.040134545 0.100109205 0.14248244 -0.11799567
0.36128712 0.2477065 0.0770837 0.11947734 -0.0741833 -0.18082279 0.3320222 0.23170988
0.15653788 -0.030874318 -0.09650961 0.0779054 0.0358781 -0.23072883 0.1902251 0.09132754

context_transformer_0/ffn_layer_3/intermediate_dense/einsum/Einsum;context_transformer_0/ffn_layer_3/intermediate_dense/Relu;context_transformer_0/ffn_layer_3/intermediate_dense/add f4 [32]
00000000: 41af 26be 19b3 12be e815 92bd f647 7fbe
00000010: d69d abbd f80b fbbd a751 fbbd 269b 7bbe
00000020: 9588 d33b 03e2 35bd 5ec9 12bc f61a aabd
00000030: 23f8 f33b 96ec 33be 0c0f 20be 056a 603e
00000040: 38b1 58be 4900 88be 18cf 213e 3968 80be
00000050: 50eb a9be 7a40 073d f5be 703e 1e16 223e
00000060: b40a 0c3e 9bc0 6abd 44ab 88be c8ab 973d
00000070: 312e 083d d471 063b e511 1dbe 99a0 4dbd
-0.16277792 -0.14326133 -0.071330845 -0.24929795 -0.08379714 -0.12258142 -0.12271433 -0.24570903
0.006455491 -0.044404995 -0.0089591425 -0.08305924 0.0074453517 -0.17570719 -0.1563074 0.21915443
-0.21161354 -0.26562718 0.15801656 -0.25079516 -0.33187342 0.033020474 0.23510344 0.1582875
0.13675958 -0.05731259 -0.26693165 0.074058115 0.033247177 0.0020514624 -0.15338857 -0.050201986
